…
achine_learning_ex3/second_step/main.py -m simple -d celebA -e 100
2024-02-24 08:42:07,549 INFO device: cuda
2024-02-24 08:42:07,550 INFO model: simple
2024-02-24 08:42:07,550 INFO epochs: 100
2024-02-24 08:42:07,550 INFO batch size: 256
2024-02-24 08:42:07,550 INFO learning rate: 0.001
2024-02-24 08:42:07,550 INFO criterion: mse
2024-02-24 08:42:07,550 INFO dataset: celebA

----------------------------------------------------------------
        Layer (type)               Output Shape         Param #
================================================================
            Conv2d-1        [256, 32, 218, 178]             896
            Conv2d-2         [256, 64, 109, 89]          18,496
            Conv2d-3         [256, 128, 54, 44]          73,856
            Conv2d-4         [256, 256, 27, 22]         295,168
            Linear-5                 [256, 512]       3,932,672
            Linear-6                  [256, 40]          20,520
            Linear-7                  [256, 10]             410
================================================================
Total params: 4,342,018
Trainable params: 4,342,018
Non-trainable params: 0
----------------------------------------------------------------
Input size (MB): 113.68
Forward/backward pass size (MB): 4529.97
Params size (MB): 16.56
Estimated Total Size (MB): 4660.22
----------------------------------------------------------------
Training epoch 1: 100%|██████████| 196/196 [01:24<00:00,  2.32it/s]
…
