…
/home/maxim/.virtualenvs/nanoGPT/lib/python3.8/site-packages/torchvision/models/_utils.py:208: UserWarning: The parameter 'pretrained' is deprecated since 0.13 and may be removed in the future, please use 'weights' instead.
  warnings.warn(
/home/maxim/.virtualenvs/nanoGPT/lib/python3.8/site-packages/torchvision/models/_utils.py:223: UserWarning: Arguments other than a weight enum or `None` for 'weights' are deprecated since 0.13 and may be removed in the future. The current behavior is equivalent to passing `weights=None`.
  warnings.warn(msg)
----------------------------------------------------------------
        Layer (type)               Output Shape         Param #
================================================================
            Conv2d-1         [256, 64, 109, 89]           9,408
       BatchNorm2d-2         [256, 64, 109, 89]             128
              ReLU-3         [256, 64, 109, 89]               0
         MaxPool2d-4          [256, 64, 55, 45]               0
            Conv2d-5          [256, 64, 55, 45]          36,864
       BatchNorm2d-6          [256, 64, 55, 45]             128
              ReLU-7          [256, 64, 55, 45]               0
            Conv2d-8          [256, 64, 55, 45]          36,864
       BatchNorm2d-9          [256, 64, 55, 45]             128
             ReLU-10          [256, 64, 55, 45]               0
       BasicBlock-11          [256, 64, 55, 45]               0
           Conv2d-12          [256, 64, 55, 45]          36,864
      BatchNorm2d-13          [256, 64, 55, 45]             128
             ReLU-14          [256, 64, 55, 45]               0
           Conv2d-15          [256, 64, 55, 45]          36,864
      BatchNorm2d-16          [256, 64, 55, 45]             128
             ReLU-17          [256, 64, 55, 45]               0
       BasicBlock-18          [256, 64, 55, 45]               0
           Conv2d-19         [256, 128, 28, 23]          73,728
      BatchNorm2d-20         [256, 128, 28, 23]             256
             ReLU-21         [256, 128, 28, 23]               0
           Conv2d-22         [256, 128, 28, 23]         147,456
      BatchNorm2d-23         [256, 128, 28, 23]             256
           Conv2d-24         [256, 128, 28, 23]           8,192
      BatchNorm2d-25         [256, 128, 28, 23]             256
             ReLU-26         [256, 128, 28, 23]               0
       BasicBlock-27         [256, 128, 28, 23]               0
           Conv2d-28         [256, 128, 28, 23]         147,456
      BatchNorm2d-29         [256, 128, 28, 23]             256
             ReLU-30         [256, 128, 28, 23]               0
           Conv2d-31         [256, 128, 28, 23]         147,456
      BatchNorm2d-32         [256, 128, 28, 23]             256
             ReLU-33         [256, 128, 28, 23]               0
       BasicBlock-34         [256, 128, 28, 23]               0
           Conv2d-35         [256, 256, 14, 12]         294,912
      BatchNorm2d-36         [256, 256, 14, 12]             512
             ReLU-37         [256, 256, 14, 12]               0
           Conv2d-38         [256, 256, 14, 12]         589,824
      BatchNorm2d-39         [256, 256, 14, 12]             512
           Conv2d-40         [256, 256, 14, 12]          32,768
      BatchNorm2d-41         [256, 256, 14, 12]             512
             ReLU-42         [256, 256, 14, 12]               0
       BasicBlock-43         [256, 256, 14, 12]               0
           Conv2d-44         [256, 256, 14, 12]         589,824
      BatchNorm2d-45         [256, 256, 14, 12]             512
             ReLU-46         [256, 256, 14, 12]               0
           Conv2d-47         [256, 256, 14, 12]         589,824
      BatchNorm2d-48         [256, 256, 14, 12]             512
             ReLU-49         [256, 256, 14, 12]               0
       BasicBlock-50         [256, 256, 14, 12]               0
           Conv2d-51           [256, 512, 7, 6]       1,179,648
      BatchNorm2d-52           [256, 512, 7, 6]           1,024
             ReLU-53           [256, 512, 7, 6]               0
           Conv2d-54           [256, 512, 7, 6]       2,359,296
      BatchNorm2d-55           [256, 512, 7, 6]           1,024
           Conv2d-56           [256, 512, 7, 6]         131,072
      BatchNorm2d-57           [256, 512, 7, 6]           1,024
             ReLU-58           [256, 512, 7, 6]               0
       BasicBlock-59           [256, 512, 7, 6]               0
           Conv2d-60           [256, 512, 7, 6]       2,359,296
      BatchNorm2d-61           [256, 512, 7, 6]           1,024
             ReLU-62           [256, 512, 7, 6]               0
           Conv2d-63           [256, 512, 7, 6]       2,359,296
      BatchNorm2d-64           [256, 512, 7, 6]           1,024
             ReLU-65           [256, 512, 7, 6]               0
       BasicBlock-66           [256, 512, 7, 6]               0
AdaptiveAvgPool2d-67           [256, 512, 1, 1]               0
           Linear-68                  [256, 10]           5,130
================================================================
Total params: 11,181,642
Trainable params: 11,181,642
Non-trainable params: 0
----------------------------------------------------------------
Input size (MB): 113.68
Forward/backward pass size (MB): 12871.52
Params size (MB): 42.65
Estimated Total Size (MB): 13027.86
----------------------------------------------------------------
Training epoch 1: 100%|██████████| 196/196 [02:03<00:00,  1.59it/s]
…
