…
ond_step/main.py -m simple -d cifar10 -e 100 -b 4096 -l 0.00001
2024-02-23 21:23:25,474 INFO device: cuda
2024-02-23 21:23:25,474 INFO model: simple
2024-02-23 21:23:25,474 INFO epochs: 100
2024-02-23 21:23:25,475 INFO batch size: 4096
2024-02-23 21:23:25,475 INFO learning rate: 1e-05
2024-02-23 21:23:25,475 INFO criterion: mse
2024-02-23 21:23:25,475 INFO dataset: cifar10

----------------------------------------------------------------
        Layer (type)               Output Shape         Param #
================================================================
            Conv2d-1         [4096, 32, 32, 32]             896
            Conv2d-2         [4096, 64, 32, 32]          18,496
            Conv2d-3        [4096, 128, 16, 16]          73,856
            Conv2d-4          [4096, 256, 8, 8]         295,168
            Linear-5               [4096, 1024]       4,195,328
            Linear-6                [4096, 256]         262,400
            Linear-7                [4096, 128]          32,896
            Linear-8                 [4096, 10]           1,290
================================================================
Total params: 4,880,330
Trainable params: 4,880,330
Non-trainable params: 0
----------------------------------------------------------------
Input size (MB): 48.00
Forward/backward pass size (MB): 4652.31
Params size (MB): 18.62
Estimated Total Size (MB): 4718.93
----------------------------------------------------------------
Training epoch 1: 100%|██████████| 13/13 [00:15<00:00,  1.17s/it]
…
